model/keypoint_classifier/keypoint_classifier.tflite (tflite, 23504 bytes, 8 tensors)

sequential_8/dense_35/MatMul f4 [30, 32]
0.34452853 0.5857791 -0.24084413 -1.1855688 -0.3064951 -1.4054513 -0.50226885 0.31303892
0.085065916 0.60097027 -0.1587483 0.16696241 -1.7725893 -1.1702013 0.5877133 0.103669375
0.24554707 -1.2865497 -1.355555 -0.9972489 0.12991333 0.16461547 -1.6439674 -0.2139766
0.045976747 0.5594569 0.41155487 0.049837053 -0.8800588 -0.37210453 0.09204952 0.4893855
-1.9303056 -1.6544491 0.5925648 0.3678507 0.21459603 0.3992056 -1.0212114 -0.033248246
0.30559474 -1.5737997 -1.9569166 -0.015913002 0.16611345 0.69832987 -1.2189287 -0.87081325
-0.82933974 0.6335985 -0.17825682 0.43364716 0.080668524 -1.3014883 0.6175334 0.18338928
-0.20892707 -0.5725819 -1.6312523 -0.64653075 -0.9292799 0.5185268 -0.16277757 -2.1916904
-1.3318131 0.4579286 0.43927857 0.18909565 -0.69550675 -0.39480513 0.08300737 0.10517942
0.0067945793 0.18927017 -0.522251 -0.28544897 0.08447431 0.28935647 -0.34479624 -0.7292477
0.46653768 0.62350816 -0.21169539 -0.18150026 -1.1126931 0.23443176 -0.016318984 0.64854765
-0.1856266 -0.029632242 -0.41473645 -1.905192 -1.3285547 0.34759718 0.7584381 -1.2358534
0.2081247 0.2473767 -0.5483708 0.28947943 -0.62590325 -0.61897457 -0.3770297 -1.4773483
-0.0025884453 -0.16025676 -0.40392205 -0.5478835 -0.9758932 -0.23741843 0.11920055 -1.5627183
0.5141101 -0.5008802 -0.3512186 0.18487081 -1.1880795 0.38652122 0.5649547 0.17559054
0.32554165 0.4069165 0.054109935 -0.6802935 -0.13890631 0.22336681 0.6312134 -0.40593633
-0.8481231 -1.4096264 0.43126744 -0.6335961 0.81229776 -1.3107936 -0.7897124 -0.20371956
0.65216005 -1.6871244 0.062135655 -1.2188308 -0.07939721 0.5678724 0.30555296 -0.84963965
-0.58825207 0.3713011 -1.9516407 -1.9939797 0.026350861 -0.51347715 -0.5344876 0.6318846
-0.068566166 0.72736204 -0.55962235 -1.7311683 -2.303133 0.684146 0.6651561 -1.2109225
-0.31838277 -1.358123 0.40403923 -0.15099747 0.22695784 0.15930633 -0.24958019 0.69306296
0.339339 -0.38180915 -0.37429747 -0.3301382 0.45311257 0.40336314 0.1976987 0.6689624
-1.0920789 -0.260517 -0.21289027 -0.22783661 0.47854117 -1.1477648 -0.9514342 -0.099750824
-0.31508884 -0.86556005 -0.9634489 -0.14061508 -0.5103943 -1.3168441 -0.54537904 0.30954963
0.33105925 -0.34150273 -2.330697 -2.323623 0.79021424 -0.19041769 -1.4411337 0.09946979
0.0779758 -1.3265971 0.5462198 -2.0176482 -1.9762629 -1.8742251 0.40589347 -0.43780378
0.5694144 -2.7292893 -0.77871263 -2.3614023 0.6118327 -0.18943016 -1.365155 -1.9077015
0.5888008 -0.47248363 0.6718732 0.42856938 0.55395585 -1.8528683 0.03443446 0.26216742
0.2640965 -0.049525045 -0.62443936 -0.08686894 0.2249988 -1.1195205 -1.2338443 -0.20170197
0.09185434 0.37716082 0.056459725 -0.39423072 0.38393304 -0.076352715 0.20484246 -0.58469856
-0.0067704394 -1.6331851 0.036371805 0.49919263 -0.08067414 -0.2609651 -0.12911242 -0.77825576
0.5086216 0.012907665 0.22926025 0.24426454 -0.036753133 -2.436105 -1.455234 0.41115662
00000000: 0b66 b03e 9ef5 153f d89f 76be b8c0 97bf
00000010: edec 9cbe d4e5 b3bf b194 00bf a346 a03e
00000020: 0a37 ae3d 30d9 193f ea8e 22be 32f8 2a3e
00000030: 35e4 e2bf 28c9 95bf 6174 163f 9c50 d43d
00000040: b170 7b3e a9ad a4bf d482 adbf b44b 7fbf
00000050: 0008 053e f590 283e 866d d2bf af1c 5bbe
00000060: 1d52 3c3d 9138 0f3f 52b7 d23e f021 4c3d
00000070: 894b 61bf 7c84 bebe 7584 bc3d bc90 fa3e
00000080: 4114 f7bf fdc4 d3bf 54b2 173f ed56 bc3e
00000090: 10bf 5b3e ad64 cc3e 0eb7 82bf 502f 08bd
000000a0: ea76 9c3e 4572 c9bf 3e7c fabf fc5b 82bc
000000b0: a519 2a3e bfc5 323f db05 9cbf 9eed 5ebf
000000c0: 9c4f 54bf 8333 223f f588 36be 0007 de3e
000000d0: 8a35 a53d 2b97 a6bf ab16 1e3f 66ca 3b3e
000000e0: faf0 55be ba94 12bf e0cc d0bf 0a83 25bf
000000f0: 4ae5 6dbf 2cbe 043f 2aaf 26be a844 0cc0
00000100: da78 aabf 9e75 ea3e 1fe9 e03e 4aa2 413e
00000110: bb0c 32bf e623 cabe c5ff a93d 4f68 d73d
00000120: 10a5 de3b 0ad0 413e 3eb2 05bf 5e26 92be
00000130: de00 ad3d 8826 943e 2289 b0be faaf 3abf
00000140: 07de ee3e 3b9e 1f3f adc6 58be 34db 39be
00000150: ba6c 8ebf e10e 703e 64af 85bc 3807 263f
00000160: e614 3ebe 51bf f2bc 5658 d4be 55dd f3bf
00000170: 150e aabf 42f8 b13e 0029 423f 7230 9ebf
00000180: a41e 553e 5150 7d3e 0762 0cbf a636 943e
00000190: 323b 20bf 1e75 1ebf 090a c1be c019 bdbf
000001a0: e8a2 29bb 591a 24be dfce cebe 1842 0cbf
000001b0: 23d4 79bf d11d 73be 6b1f f43d 2707 c8bf
000001c0: b89c 033f af39 00bf edd2 b3be c64e 3d3e
000001d0: fd12 98bf 1ce6 c53e dfa0 103f 02ce 333e
000001e0: 65ad a63e 5c57 d03e 61a2 5d3d b727 2ebf
000001f0: 753d 0ebe 45ba 643e 3497 213f e3d6 cfbe
00000200: 981e 59bf a36e b4bf 16cf dc3e 5b33 22bf
00000210: bff2 4f3f 16c8 a7bf 982a 4abf dc9b 50be
00000220: f6f3 263f b1f3 d7bf f581 7e3d a602 9cbf
00000230: 019b a2bd 1660 113f 7071 9c3e fc81 59bf
00000240: b097 16bf 2e1b be3e 5dcf f9bf ba3a ffbf
00000250: c3dd d73c 3d73 03bf 2ed4 08bf 30c3 213f
00000260: 6b6c 8cbd 6634 3a3f 6943 0fbf ec96 ddbf
00000270: 8866 13c0 3124 2f3f ac47 2a3f 82ff 9abf
00000280: 1103 a3be f9d6 adbf 3bde ce3e 159f 1abe
00000290: a367 683e 3321 233e f391 7fbe 936c 313f
000002a0: d7bd ad3e 7d7c c3be eba3 bfbe e007 a9be
000002b0: 5ffe e73e 9d85 ce3e 8771 4a3e 1f41 2b3f
000002c0: 3ec9 8bbf 7c62 85be e8ff 59be 004e 69be
000002d0: 5903 f53e f5e9 92bf 3191 73bf 294a ccbd
000002e0: 5353 a1be 5895 5dbf 96a4 76bf 66fd 0fbe
000002f0: 33a9 02bf 598e a8bf f69d 0bbf 4a7d 9e3e
00000300: 9980 a93e 72d9 aebe 242a 15c0 3db6 14c0
00000310: 7b4b 4a3f dbfc 42be 1277 b8bf d1b6 cb3d
00000320: c7b1 9f3d efcd a9bf 10d5 0b3f 2621 01c0
00000330: 2ff6 fcbf 9ce6 efbf 45d1 cf3e d127 e0be
00000340: 24c5 113f adac 2ec0 b659 47bf 3721 17c0
00000350: 11a1 1c3f fbf9 41be 66bd aebf 902f f4bf
00000360: a6bb 163f 60e9 f1be e2ff 2b3f 726d db3e
00000370: 0dd0 0d3f ca2a edbf 260b 0d3d cf3a 863e
00000380: a837 873e c6da 4abd 42db 1fbf 58e8 b1bd
00000390: 1666 663e 734c 8fbf 9cee 9dbf f68a 4ebe
000003a0: 211e bc3d 391b c13e 5042 673d 9cd8 c9be
000003b0: df92 c43e d05e 9cbd 39c2 513e ceae 15bf
000003c0: 90da ddbb 360c d1bf 9afa 143d 2d96 ff3e
000003d0: 7c38 a5bd 389d 85be 0c36 04be c53b 47bf
000003e0: 0635 023f ac7a 533c 33c3 6a3e 7c20 7a3e
000003f0: 748a 16bd 25e9 1bc0 1c45 babf 1f83 d23e

sequential_8/dense_33/BiasAdd/ReadVariableOp f4 [64]
0.07821541 0.048867457 -0.04645017 0.22887896 -0.10668545 0.040585514 0.18808255 0.18324022
0.2950669 0.16739538 0.19312039 0.13195175 0.17587243 0.3261018 0.087776005 -0.030828632
0.0861174 0.10607734 0.17884071 0.121456526 0.15641642 0.20821863 0.33733872 0.11632631
0.09919603 0.07334507 0.15781905 0.0972964 0.07757312 0.0826496 0.09055554 0.25288853
-0.099419065 -0.022086391 0.092209645 0.053366873 0.07980679 -0.035782803 0.10190102 0.5129922
0.17339288 0.09127826 0.044272456 0.06824341 0.09034604 -0.05507643 -0.0020410651 0.017535387
0.10661599 -0.025473988 0.111465834 0.11293099 0.4176645 0.22542316 0.26442957 0.17033362
0.24983242 0.009395963 0.28276867 0.17536874 0.13586389 0.1970991 0.4017403 0.114860594
00000000: 672f a03d 3e29 483d 8942 3ebd 3f5f 6a3e
00000010: e77d dabd ff3c 263d b698 403e 53a3 3b3e
00000020: 0213 973e b269 2b3e 5ac1 453e 5c1e 073e
00000030: e717 343e d1f6 a63e e8c3 b33d 548c fcbc
00000040: 525e b03d 143f d93d 0522 373e 33be f83d
00000050: a02b 203e 4437 553e a9b7 ac3e 7d3c ee3d
00000060: 4a27 cb3d f135 963d 519b 213e 5643 c73d
00000070: a8de 9e3d 3244 a93d 2f75 b93d 9b7a 813e
00000080: 399c cbbd 85ee b4bc 69d8 bc3d 3997 5a3d
00000090: be71 a33d fd90 12bd 7bb1 d03d 7553 033f
000000a0: e78d 313e 19f0 ba3d 0957 353d 33c3 8b3d
000000b0: 5807 b93d d397 61bd 64c3 05bb 5fa6 8f3c
000000c0: 7c59 da3d d3ae d0bc 3348 e43d 5d48 e73d
000000d0: 1fd8 d53e 54d5 663e 5063 873e f06b 2e3e
000000e0: 12d4 7f3e 86f1 193c 0ec7 903e dd93 333e
000000f0: e71f 0b3e 59d4 493e e8b0 cd3e 083c eb3d

sequential_8/dense_34/BiasAdd/ReadVariableOp f4 [32]
0.7062523 -0.05218491 0.37807107 0.5787191 2.0085464 0.18704528 -0.4071266 0.018896166
0.64349514 -0.35948795 0.27688736 -0.19194797 0.18672307 0.76401913 0.9853473 -0.20030619
0.5493285 0.027044889 0.1595698 0.051335704 0.44250032 -0.04362433 0.7302913 0.09251884
0.90466785 0.0870484 0.20668577 0.657348 0.4953871 0.31217355 0.5257382 -0.040505055
00000000: f3cc 343f d8bf 55bd 8892 c13e ef26 143f
00000010: 068c 0040 cc88 3f3e e672 d0be 22cc 9a3c
00000020: 19bc 243f ce0e b8be 2ec4 8d3e 028e 44be
00000030: 5534 3f3e c296 433f b83f 7c3f 111d 4dbe
00000040: cba0 0c3f 3e8d dd3c 4466 233e 6345 523d
00000050: 678f e23e 6daf 32bd 5ff4 3a3f 857a bd3d
00000060: 5098 673f 6e46 b23d 6fa5 533e f547 283f
00000070: 61a3 fd3e 36d5 9f3e c796 063f a1e8 25bd

sequential_8/dense_35/BiasAdd/ReadVariableOp f4 [30]
-0.6601063 0.49751735 -0.41227764 0.4000508 0.20087977 0.10051408 1.1474389 0.2063454
0.19631922 -0.61955214 0.12057068 0.5242745 0.039451122 0.16733678 -0.7925333 0.23540452
-0.30383313 0.44979247 0.19948685 0.06713565 0.5413518 0.36336988 -0.011812655 -0.9862702
-0.37054533 0.499417 -0.17515741 -0.55145407 -0.9229162 -0.06732998
00000000: bafc 28bf 98ba fe3e 0e16 d3be 75d3 cc3e
00000010: 6db3 4d3e 53da cd3d 47df 923f 354c 533e
00000020: e807 493e f89a 1ebf c3ed f63d db36 063f
00000030: 8097 213d 555a 2b3e 76e3 4abf e20d 713e
00000040: 0490 9bbe 334b e63e 4846 4c3e 6a7e 893d
00000050: 0896 0a3f 9e0b ba3e de89 41bc 347c 7cbf
00000060: 1eb8 bdbe 96b3 ff3e 775c 33be 182c 0dbf
00000070: 3c44 6cbf 4de4 89bd

sequential_8/dense_32/MatMul;sequential_8/dense_32/Relu;sequential_8/dense_32/BiasAdd f4 [128]
-0.03635772 -0.12399383 0.47208452 -0.4324333 -0.95784146 -0.24134794 1.1342587 0.70662105
-0.2637972 0.043452356 -0.3857069 1.1186792 0.027875084 -0.6381371 -0.73401105 -0.5692598
0.32689443 -0.39998227 0.3050989 0.23693037 0.3148022 0.7030011 -0.0574542 -0.28794506
-0.32729104 -0.391593 -0.4913199 0.50203735 -0.41741034 0.56070095 -0.77898186 -0.123957805
-0.16034375 -0.017474914 0.66340595 -0.65167356 0.26286975 0.25156167 -0.99744016 -0.27053273
0.6753407 0.3147299 0.43314224 0.053373307 -0.67634815 -0.19399288 0.30896708 0.6278135
0.025086267 -0.2892414 0.9804541 1.2977356 0.46648097 0.96131724 -0.54373324 -0.6141219
0.41623834 -1.9425126 -0.06715316 1.0024911 -0.64607394 -0.3160555 -1.3411452 0.93401575
0.9824244 -0.5250078 0.4663518 0.53642017 0.4812035 -0.49737668 -0.9571239 -0.25194636
0.600809 0.65259993 0.45993504 -0.5478853 -1.3274533 -0.24951263 0.117601514 -0.23910491
-0.14035258 0.72225845 -0.10934583 0.3125266 0.7535453 0.01130709 -0.016059902 0.50936013
1.3212731 0.16331615 -0.27595317 1.4372826 0.23831591 -0.5276651 0.2702261 -0.557089
-0.12111332 1.6398709 0.5313071 0.73105437 0.058500968 0.56496227 0.15316622 0.3498259
-0.48889711 -0.3289428 0.3648924 -0.48307988 -0.24372302 -0.8823973 -0.27930444 -0.73076093
1.2368505 1.0570676 -0.7408371 -0.46730918 0.8417207 -0.15919419 0.48163176 -0.07919847
0.25488514 1.5334681 0.49389443 0.5410207 -0.08120208 -0.2206953 -0.3377934 -0.016450433
00000000: d5eb 14bd 7af0 fdbd 10b5 f13e e667 ddbe
00000010: 1935 75bf ea23 77be 642f 913f 1ee5 343f
00000020: 6d10 87be 19fb 313d 607b c5be e130 8f3f
00000030: 4a5a e43c f45c 23bf 26e8 3bbf 03bb 11bf
00000040: b55e a73e 7aca ccbe ec35 9c3e e09d 723e
00000050: c12d a13e e1f7 333f 1855 6bbd 896d 93be
00000060: b192 a7be e17e c8be 488e fbbe 8585 003f
00000070: cfb6 d5be 198a 0f3f 5b6b 47bf 97dd fdbd
00000080: 2731 24be 8d27 8fbc f9d4 293f 14d4 26bf
00000090: dd96 863e b1cc 803e 3d58 7fbf 4483 8abe
000000a0: 21e3 2c3f 4724 a13e d2c4 dd3e f89d 5a3d
000000b0: 2725 2dbf 12a6 46be ef30 9e3e 63b8 203f
000000c0: b781 cd3c 7317 94be 0aff 7a3f 331c a63f
000000d0: 98d6 ee3e e318 763f 1a32 0bbf 1837 1dbf
000000e0: 311d d53e 41a4 f8bf 9987 89bd a151 803f
000000f0: 1a65 25bf 07d2 a1be a5aa abbf a81b 6f3f
00000100: 2a80 7b3f e966 06bf aac5 ee3e d552 093f
00000110: 4e60 f63e 28a8 febe 1206 75bf 1dff 80be
00000120: 9ece 193f ca10 273f 9b7c eb3e 3642 0cbf
00000130: fde9 a9bf 3d80 7fbe 10d9 f03d ebd7 74be
00000140: 96b8 0fbe eee5 383f b5f0 dfbd 7d03 a03e
00000150: 58e8 403f 5f41 393c 0e90 83bc 6d65 023f
00000160: 7a1f a93f 593c 273e bc49 8dbe e0f8 b73f
00000170: 1609 743e 0f15 07bf 135b 8a3e 629d 0ebf
00000180: 430a f8bd 4ae7 d13f be03 083f 6126 3b3f
00000190: b69e 6f3d 5ea1 103f 9bd7 1c3e 611c b33e
000001a0: b950 fabe 316b a8be 2dd3 ba3e 3f56 f7be
000001b0: 8792 79be cae4 61bf fe00 8fbe 2613 3bbf
000001c0: 1e51 9e3f fe4d 873f 80a7 3dbf 2643 efbe
000001d0: 027b 573f cd03 23be 7098 f63e cf32 a2bd
000001e0: 4e80 823e af48 c43f bbdf fc3e 5580 0a3f
000001f0: 474d a6bd f3fd 61be 42f3 acbe 0fc3 86bc

sequential_8/batch_normalization_8/batchnorm/mul_1;sequential_8/batch_normalization_8/batchnorm/add_1;sequential_8/dense_32/MatMul;sequential_8/dense_32/Relu;sequential_8/dense_32/BiasAdd i1 [128, 42] scale=0.028201383 zero_point=0
-0.028201383 0.0 -0.11280553 -0.4794235 -0.028201383 -0.28201383 0.28201383 -0.11280553
0.9870484 0.056402765 -0.19740967 -0.084604144 -0.3102152 0.028201383 -0.16920829 0.19740967
-0.028201383 0.3102152 0.084604144 0.028201383 -0.056402765 0.19740967 0.056402765 -0.084604144
0.25381243 -0.67683315 0.0 0.16920829 -0.028201383 0.42302075 -0.22561106 0.16920829
-0.56402767 -0.3102152 -0.16920829 0.39481935 -0.084604144 0.3102152 -0.25381243 0.028201383
-0.67683315 -0.67683315 0.0 0.0 -0.70503455 -0.6204304 -0.25381243 0.14100692
-0.19740967 0.16920829 -0.084604144 -0.28201383 -0.084604144 -0.084604144 0.084604144 0.0
0.19740967 -0.11280553 0.39481935 -0.056402765 0.056402765 -0.028201383 0.056402765 0.11280553
0.28201383 0.056402765 0.90244424 0.16920829 0.19740967 0.028201383 0.084604144 0.11280553
0.39481935 -0.028201383 0.7896387 -0.028201383 0.592229 0.14100692 0.22561106 0.11280553
0.36661798 -0.11280553 0.6204304 -0.33841658 0.084604144 0.0 -0.22561106 -1.5228747
0.056402765 -0.28201383 0.45122212 -0.28201383 1.3818678 -0.6204304 0.6486318 0.14100692
-0.028201383 0.16920829 -0.11280553 0.056402765 -0.22561106 -0.084604144 0.8178401 0.084604144
0.028201383 0.36661798 -0.16920829 0.14100692 -0.53582627 0.084604144 0.56402767 0.084604144
0.028201383 0.28201383 -0.22561106 0.16920829 -0.53582627 0.3102152 -0.11280553 0.084604144
-0.028201383 0.14100692 -0.084604144 0.11280553 -0.25381243 0.19740967 -0.028201383 0.0
0.11280553 -0.56402767 -0.028201383 0.11280553 0.11280553 0.084604144 0.56402767 -0.3102152
-0.14100692 -0.084604144 -0.028201383 -0.056402765 0.084604144 -0.028201383 0.25381243 0.084604144
0.084604144 0.0 0.028201383 0.028201383 0.19740967 0.056402765 0.70503455 0.22561106
0.33841658 0.028201383 0.084604144 -0.028201383 0.28201383 -0.056402765 0.6204304 -0.028201383
0.6486318 0.14100692 0.19740967 0.028201383 0.28201383 -0.056402765 0.50762486 -0.11280553
0.028201383 0.0 2.1151037 -0.70503455 0.56402767 -0.19740967 -0.11280553 0.0
-1.4382706 0.56402767 0.8460415 -0.14100692 0.22561106 -0.084604144 0.14100692 -0.056402765
0.19740967 0.056402765 0.084604144 0.0 -0.056402765 -0.16920829 0.11280553 -0.14100692
0.6486318 -0.14100692 -0.45122212 0.14100692 -0.25381243 -0.14100692 -0.14100692 -0.33841658
0.42302075 -0.70503455 -0.39481935 0.3102152 -0.11280553 0.11280553 0.16920829 0.056402765
0.90244424 0.28201383 0.0 0.0 0.28201383 -3.5815756 0.28201383 -0.22561106
0.28201383 0.084604144 0.22561106 0.28201383 -0.70503455 -0.28201383 -0.084604144 -0.28201383
0.0 -0.28201383 0.056402765 -0.3102152 -1.0434512 0.028201383 -0.056402765 0.084604144
-0.084604144 0.028201383 -0.3102152 0.0 -1.0434512 0.36661798 0.11280553 0.28201383
0.45122212 0.14100692 0.56402767 0.14100692 -0.8178401 0.8460415 0.056402765 0.45122212
0.11280553 0.084604144 0.0 -0.3102152 0.056402765 0.0 0.45122212 0.592229
00000000: ff00 fcef fff6 0afc 2302 f9fd f501 fa07
00000010: ff0b 0301 fe07 02fd 09e8 0006 ff0f f806
00000020: ecf5 fa0e fd0b f701 e8e8 0000 e7ea f705
00000030: f906 fdf6 fdfd 0300 07fc 0efe 02ff 0204
00000040: 0a02 2006 0701 0304 0eff 1cff 1505 0804
00000050: 0dfc 16f4 0300 f8ca 02f6 10f6 31ea 1705
00000060: ff06 fc02 f8fd 1d03 010d fa05 ed03 1403
00000070: 010a f806 ed0b fc03 ff05 fd04 f707 ff00
00000080: 04ec ff04 0403 14f5 fbfd fffe 03ff 0903
00000090: 0300 0101 0702 1908 0c01 03ff 0afe 16ff
000000a0: 1705 0701 0afe 12fc 0100 4be7 14f9 fc00
000000b0: cd14 1efb 08fd 05fe 0702 0300 fefa 04fb
000000c0: 17fb f005 f7fb fbf4 0fe7 f20b fc04 0602
000000d0: 200a 0000 0a81 0af8 0a03 080a e7f6 fdf6
000000e0: 00f6 02f5 db01 fe03 fd01 f500 db0d 040a
000000f0: 1005 1405 e31e 0210 0403 00f5 0200 1015

sequential_8/dense_33/MatMul i1 [64, 128] scale=0.0010978064 zero_point=0
0.008782451 0.0032934193 0.0065868385 0.0043912255 -0.013173677 -0.008782451 0.017564902 0.017564902
0.014271483 0.07245522 -0.021956127 0.02744516 -0.026347354 -0.005489032 -0.040618837 0.0021956128
-0.0032934193 -0.020858321 0.023053935 0.04610787 0.0 -0.014271483 0.007684645 -0.0043912255
-0.041716643 -0.02415174 0.008782451 -0.01207587 -0.007684645 -0.0032934193 0.0032934193 0.09221574
0.07245522 -0.02415174 0.08013987 -0.055988126 0.018662708 -0.04281445 -0.019760516 -0.034032
-0.0010978064 0.0021956128 0.023053935 0.0691618 0.03842322 0.037325416 0.050499093 -0.010978064
0.08453109 -0.02744516 0.0515969 0.017564902 -0.008782451 0.018662708 -0.007684645 -0.01536929
0.0 0.023053935 0.031836387 0.028542966 -0.03952103 -0.03073858 -0.008782451 0.043912254
0.0856289 0.03952103 -0.0032934193 -0.0021956128 -0.0065868385 -0.005489032 -0.04281445 -0.013173677
0.047205675 -0.010978064 -0.0032934193 -0.052694708 0.025249546 -0.049401287 0.021956127 -0.023053935
0.06696619 0.0856289 0.0043912255 0.0032934193 -0.0010978064 0.06147716 -0.032934193 -0.009880258
0.03073858 0.0043912255 -0.021956127 0.08013987 0.023053935 -0.02744516 0.016467096 0.0021956128
0.029640771 0.03622761 -0.0065868385 0.03073858 0.07684644 0.06367277 0.0032934193 0.0032934193
-0.009880258 -0.009880258 -0.0032934193 0.034032 0.014271483 -0.026347354 -0.04281445 0.025249546
0.03952103 0.031836387 -0.01536929 -0.009880258 0.017564902 -0.01536929 0.007684645 0.07794426
0.043912254 0.01207587 0.007684645 -0.0065868385 -0.026347354 -0.050499093 -0.016467096 -0.0021956128
-0.01207587 0.08013987 -0.03073858 0.04610787 0.0043912255 -0.013173677 0.005489032 -0.017564902
0.03952103 -0.0032934193 -0.016467096 0.04830348 0.0 0.07465083 0.03073858 0.060379352
-0.0021956128 0.04830348 -0.005489032 0.041716643 0.0 -0.01207587 -0.028542966 0.068064
0.017564902 -0.029640771 0.065868385 -0.0065868385 -0.02744516 -0.007684645 0.08013987 0.0010978064
0.0021956128 -0.02415174 0.010978064 -0.009880258 -0.014271483 0.017564902 -0.0032934193 -0.007684645
-0.005489032 -0.03842322 -0.026347354 -0.0043912255 -0.008782451 -0.0010978064 0.010978064 -0.007684645
-0.0021956128 0.021956127 0.08453109 0.025249546 0.008782451 0.021956127 0.0691618 -0.018662708
-0.018662708 -0.005489032 -0.013173677 0.017564902 -0.028542966 -0.008782451 0.005489032 0.07684644
0.017564902 -0.02744516 0.0010978064 -0.0065868385 0.0021956128 0.047205675 -0.018662708 0.021956127
0.08013987 0.005489032 0.0065868385 0.032934193 -0.0043912255 -0.0010978064 -0.009880258 0.007684645
0.010978064 0.019760516 -0.0021956128 -0.010978064 -0.0032934193 0.0043912255 0.0021956128 -0.0010978064
0.058183737 -0.010978064 -0.0010978064 0.06477058 -0.026347354 0.040618837 0.07794426 0.073553026
-0.0065868385 0.07245522 0.0010978064 0.100998186 0.008782451 0.098802574 -0.0043912255 0.0065868385
-0.0032934193 -0.010978064 0.0 -0.021956127 0.06477058 0.0043912255 -0.0065868385 -0.018662708
0.04830348 0.052694708 -0.01536929 0.0691618 0.03073858 0.040618837 0.093313545 0.0043912255
0.0021956128 0.01536929 0.0021956128 -0.0021956128 0.01536929 0.019760516 -0.02415174 -0.009880258
00000000: 0803 0604 f4f8 1010 0d42 ec19 e8fb db02
00000010: fded 152a 00f3 07fc daea 08f5 f9fd 0354
00000020: 42ea 49cd 11d9 eee1 ff02 153f 2322 2ef6
00000030: 4de7 2f10 f811 f9f2 0015 1d1a dce4 f828
00000040: 4e24 fdfe fafb d9f4 2bf6 fdd0 17d3 14eb
00000050: 3d4e 0403 ff38 e2f7 1c04 ec49 15e7 0f02
00000060: 1b21 fa1c 463a 0303 f7f7 fd1f 0de8 d917
00000070: 241d f2f7 10f2 0747 280b 07fa e8d2 f1fe
00000080: f549 e42a 04f4 05f0 24fd f12c 0044 1c37
00000090: fe2c fb26 00f5 e63e 10e5 3cfa e7f9 4901
000000a0: 02ea 0af7 f310 fdf9 fbdd e8fc f8ff 0af9
000000b0: fe14 4d17 0814 3fef effb f410 e6f8 0546
000000c0: 10e7 01fa 022b ef14 4905 061e fcff f707
000000d0: 0a12 fef6 fd04 02ff 35f6 ff3b e825 4743
000000e0: fa42 015c 085a fc06 fdf6 00ec 3b04 faef
000000f0: 2c30 f23f 1c25 5504 020e 02fe 0e12 eaf7

sequential_8/dense_34/MatMul i1 [32, 64] scale=0.0021209326 zero_point=0
-0.010604663 0.05090238 0.044539586 0.010604663 0.01696746 0.061507046 -0.06362797 -0.14634435
0.044539586 0.01696746 -0.14846528 0.18452114 0.004241865 -0.04241865 0.044539586 0.021209326
0.0848373 -0.023330258 0.012725595 -0.038176786 0.05938611 0.01696746 -0.027572123 0.031813987
-0.08907917 0.021209326 0.021209326 -0.02545119 -0.13573968 -0.17179553 -0.13998155 0.02545119
0.048781447 0.061507046 0.027572123 0.06574891 0.04241865 0.012725595 0.038176786 -0.0063627977
0.0021209326 0.044539586 -0.08907917 0.055144247 0.09544197 0.012725595 0.06362797 0.055144247
0.036055855 0.05090238 0.036055855 0.07635357 0.044539586 0.029693056 0.036055855 -0.038176786
-0.0063627977 0.023330258 -0.0021209326 -0.13998155 0.010604663 -0.010604663 0.07423264 0.04241865
0.0063627977 0.13361876 0.1696746 0.01696746 0.1696746 0.055144247 -0.023330258 -0.0063627977
0.010604663 -0.027572123 -0.014846528 0.029693056 -0.019088393 0.0 0.010604663 0.2014886
0.031813987 0.08059543 -0.0021209326 0.07635357 0.061507046 0.004241865 0.019088393 0.055144247
0.038176786 -0.014846528 0.0 0.08271637 0.0063627977 0.0021209326 0.014846528 0.004241865
0.0063627977 0.046660516 0.004241865 0.10604663 -0.00848373 0.19724673 -0.012725595 -0.012725595
0.09968383 0.06574891 0.029693056 -0.0021209326 0.04241865 0.17179553 0.15906994 0.06574891
-0.019088393 0.06786984 -0.012725595 0.03393492 0.0063627977 0.00848373 0.004241865 -0.004241865
-0.031813987 0.19512579 0.00848373 -0.014846528 0.040297717 0.004241865 -0.0021209326 0.08271637
0.023330258 -0.01696746 0.0063627977 -0.08059543 0.019088393 -0.05090238 0.07635357 0.03393492
0.09968383 0.03393492 0.019088393 0.07211171 0.03393492 0.06362797 0.010604663 0.019088393
0.00848373 -0.0063627977 0.044539586 -0.0063627977 0.14422342 0.036055855 0.057265177 -0.114530355
0.1039257 0.029693056 0.06362797 -0.004241865 0.053023316 0.048781447 0.044539586 0.097562894
0.04241865 -0.1039257 0.03393492 -0.019088393 0.040297717 0.014846528 0.04241865 0.11665129
-0.029693056 -0.11028849 0.08907917 0.044539586 0.06362797 0.023330258 -0.012725595 -0.01696746
0.048781447 -0.10816756 0.044539586 0.055144247 -0.05938611 0.09332103 0.07211171 0.04241865
0.0848373 0.00848373 -0.057265177 0.023330258 0.18452114 -0.06999078 -0.05938611 -0.06362797
0.004241865 0.031813987 0.061507046 -0.053023316 -0.021209326 -0.04241865 0.11240943 0.057265177
0.023330258 0.07635357 0.053023316 -0.0063627977 0.0848373 0.15906994 -0.07423264 0.00848373
-0.02545119 -0.029693056 0.09332103 -0.019088393 0.038176786 0.04241865 0.15482807 -0.012725595
0.053023316 -0.12301409 0.044539586 -0.027572123 0.027572123 0.027572123 0.031813987 0.014846528
0.07211171 0.027572123 0.027572123 0.027572123 -0.11240943 -0.0021209326 -0.114530355 0.02545119
-0.00848373 0.0 0.053023316 -0.10180476 0.0063627977 -0.01696746 0.053023316 0.0021209326
-0.1039257 0.038176786 -0.09968383 -0.00848373 -0.02545119 0.004241865 0.057265177 -0.048781447
0.09544197 -0.012725595 -0.027572123 0.057265177 0.029693056 -0.027572123 -0.014846528 0.0
00000000: fb18 1505 081d e2bb 1508 ba57 02ec 150a
00000010: 28f5 06ee 1c08 f30f d60a 0af4 c0af be0c
00000020: 171d 0d1f 1406 12fd 0115 d61a 2d06 1e1a
00000030: 1118 1124 150e 11ee fd0b ffbe 05fb 2314
00000040: 033f 5008 501a f5fd 05f3 f90e f700 055f
00000050: 0f26 ff24 1d02 091a 12f9 0027 0301 0702
00000060: 0316 0232 fc5d fafa 2f1f 0eff 1451 4b1f
00000070: f720 fa10 0304 02fe f15c 04f9 1302 ff27
00000080: 0bf8 03da 09e8 2410 2f10 0922 101e 0509
00000090: 04fd 15fd 4411 1bca 310e 1efe 1917 152e
000000a0: 14cf 10f7 1307 1437 f2cc 2a15 1e0b faf8
000000b0: 17cd 151a e42c 2214 2804 e50b 57df e4e2
000000c0: 020f 1de7 f6ec 351b 0b24 19fd 284b dd04
000000d0: f4f2 2cf7 1214 49fa 19c6 15f3 0d0d 0f07
000000e0: 220d 0d0d cbff ca0c fc00 19d0 03f8 1901
000000f0: cf12 d1fc f402 1be9 2dfa f31b 0ef3 f900
